pth_files/epoch8-loss0.176-val_loss0.174.pth (torch, 259086 bytes, 23 tensors)

stage1.0.weight f4 [16, 10, 3, 3]
00000000: 1635 753d 9acd 5dbc 5c29 133e 7070 e93d
00000010: 9c33 f73d 80eb 0bbe 8355 123e 4a19 3abd
00000020: b147 c5bd 69ae c73b e260 a63d cf2d e83d
00000030: 0ee9 33be 980b bb3e 0e27 2b3d df47 83bb
00000040: a56d 1bbc 1d31 323e 55c1 043c 83f9 adbc
00000050: b10b 843e 6143 afbe 08c4 5ebe 2067 d23d
00000060: 77a1 97be 846e 84bc 4d65 ac3c dbef 3dbc
00000070: 7ee7 9e3e e430 0e3e 703c 373d 2c53 c33c
00000080: 192b c73d fb9b 9bbe f578 b03d 7fc8 273e
00000090: a9ca 35bc c60c c83d 582e e73d 6604 40bd
000000a0: f8d6 e53d d979 3dbe ba21 0cbe 2fef 473e
000000b0: a4a7 1dbe 8f93 03be a821 b2bc 3fab 0fbd
000000c0: 1cb7 4c3e 8605 313e 87df 013e ca16 453e
000000d0: dc61 103e c52b 4b3e c592 e33d 1e87 a33c
000000e0: f1d6 d6bd 9232 313e d520 13be a56a 5e3d
000000f0: 89e9 b13d 3889 e73d 98bc 023e d0b3 7f3e
00000100: 2125 6f3c 45c5 a33e 816b f03e 4c6c 953e
00000110: 54be 083f 42c3 823e d39b 453e 37a3 393e
00000120: cf8b 0cbc 3acf 89be 121d 5cbd 59f6 82be
00000130: 09c8 133e 9063 57be 1489 18be 30d8 093c
00000140: 3743 3abe 5c7c eebc ecba 843c 0194 9ebd
00000150: 0d1d 14be 522b c83c f8eb 64be 1529 f33b
00000160: 3e7d f53c 8e65 ac3d e97f 9f3d 136c 25bd
00000170: 7764 fe3d 209d adbe ba0a 45bd 30eb 22be
00000180: 0af1 44be 4b97 c13d d9ec 9cbd f8b5 38be
00000190: 7025 c2be 9ec8 6ebe 36a8 c73a 2b71 e3bd
000001a0: ee6d c03b beb4 0bbe 856d 033e 9446 d6bc
000001b0: ddbe cdbc 4477 1bbd 175e 2a3e 300f 51be
000001c0: 18ad 323e 360e cdbe 9939 08be 5daa 013c
000001d0: 9549 843d beb8 253e ec57 ff3c 968a afb9
000001e0: ed7d 7fbe 13e1 fdbd 24c4 13be 96c6 813e
000001f0: a14e 4c3e 86c0 83be a7f8 d43e bc58 413e
00000200: 4dc9 9c3e 1020 623e 28b1 d33d 1236 853e
00000210: 5747 e93e c00c 5f3e 6515 c43c faea 6b3e
00000220: 22ca 923e cbd6 c23d 9858 853e ac7b 663e
00000230: b8b4 97bd a860 cc3d 6aa9 52bd b1cd 99be
00000240: 913f aa3d 3056 953d 07f1 83bc 5622 013e
00000250: b57a 1f3e 34a5 be3d 54c6 093d 9123 52bd
00000260: 2f8e 81bd 2c8b 1cbe 1c46 e13c 0737 3cbe
00000270: 2a09 86bd a3b1 4d3d 5867 01be cb40 a73d
00000280: fbda 9c3e 89f2 0bbd ce11 d23d c1be 39bc
00000290: d71a faba ce58 f33d c660 ec3d 5846 60bc
000002a0: 76df 353d d66f 5c3c d03e 53bb f60e 3bbc
000002b0: d216 3c3c 0974 1d3e 78d9 cc3d ce9a 133f
000002c0: 1ee8 94bd 672b b0bc ec3e 013f 9820 f63d
000002d0: 0fa9 a83e b808 133e da1f b63c d7a1 043d
000002e0: 7469 853e e2ba bb3e 5234 593c 4e03 253d
000002f0: 55e3 42bc 4a14 d53d b955 5d3c 711c 00be
00000300: 2a4a 44bd 0e01 333e da56 0bbe a696 26be
00000310: 7004 3d39 cab2 45be fb7f 593e 5e38 7abd
00000320: be92 2c3c 71f7 f63b a353 693c 81ae 3fbe
00000330: 8d52 e0bc 105e a2bd 64f1 7ebd d752 6eba
00000340: fd3f 423e f781 fabd c2af 8ebe a2d4 8e3e
00000350: 86c6 61bd df7f 24be 93b6 46be 1478 98bb
00000360: 4d0c 0c3f af02 053f def4 fc3e 22ac 333e
00000370: 14c3 c03e 186d 8f3e 0129 e43e 2578 5f3e
00000380: 06f2 323e 02fd 483e ce9e 263e 4864 103d
00000390: a78a 1b3e abbd 00bd a9d4 673c ef97 8abe
000003a0: 3add 56be 2787 cabb e58f b1be aa02 f2bd
000003b0: 4c15 aabe 2d48 4abe 339b 27bd e046 46be
000003c0: da6a 19be ffb6 9abe 5deb 9dbd d37f 66be
000003d0: 566a 3ebc a6eb 953e d173 fa3d 25c8 12be
000003e0: f0cf 88bd 2c29 423c 6d50 2f3e bb1d 42be
000003f0: c08e a5be cf20 58be df01 94bd 06db c53d
0.05986508 -0.013537789 0.14371246 0.11398399 0.120703906 -0.13664055 0.14290433 -0.045434274
-0.09632815 0.0060937894 0.08123948 0.11336862 -0.17569372 0.36532283 0.041785292 -0.0040063704
-0.0094865905 0.17401548 0.008102735 -0.02123714 0.2579017 -0.34231094 -0.21754467 0.10273576
-0.29615375 -0.01616598 0.021044398 -0.0115928305 0.3103599 0.13885838 0.044735372 0.02384337
0.09725017 -0.3039244 0.08616821 0.16385077 -0.011095681 0.09768061 0.11288136 -0.046879195
0.11222643 -0.18503512 -0.1368474 0.19524835 -0.15395981 -0.12849258 -0.021744564 -0.035075422
0.19991726 0.17287263 0.12682925 0.19246975 0.1409983 0.19840916 0.111119784 0.01996189
-0.104902156 0.17304447 -0.14367993 0.054300923 0.086871214 0.11305469 0.12767255 0.24970937
0.014596255 0.31986442 0.4695702 0.29184186 0.5341542 0.25539595 0.19297723 0.18128668
-0.008578255 -0.26915914 -0.05373866 -0.25578573 0.14431776 -0.21034074 -0.14896041 0.0084133595
-0.18189703 -0.029112034 0.016202413 -0.07743073 -0.14464207 0.02443472 -0.2235564 0.007420669
0.029966947 0.084178075 0.07788069 -0.04038627 0.12421506 -0.3390894 -0.048105933 -0.1591003
-0.19232574 0.09452685 -0.076623626 -0.18038166 -0.37919188 -0.23318717 0.0015232626 -0.111055695
0.0058724796 -0.13643166 0.12834747 -0.026156701 -0.025115425 -0.037955537 0.16637455 -0.2041595
0.17448843 -0.40049905 -0.13303222 0.007914153 0.06459347 0.16183755 0.031169854 -0.00033481856
-0.2495038 -0.12396445 -0.1443029 0.25346822 0.1995187 -0.2573282 0.41595957 0.18881506
0.3062233 0.22082543 0.10336524 0.26017815 0.4556224 0.21782207 0.023935983 0.23038855
0.2866984 0.09513625 0.26044154 0.22508115 -0.07407516 0.09979373 -0.051431097 -0.30039743
0.083129056 0.072918296 -0.016106142 0.12610754 0.15574153 0.09308854 0.033636406 -0.05130345
-0.063259475 -0.15287465 0.027499251 -0.18380366 -0.06544717 0.050218236 -0.12637079 0.08166655
0.3063582 -0.034166846 0.10257302 -0.011336983 -0.0019081485 0.118821725 0.115418956 -0.013688646
0.044402562 0.013454398 -0.0032233484 -0.011417141 0.01148005 0.15376295 0.10002416 0.5765809
-0.07270835 -0.02150507 0.50486636 0.120179355 0.3294148 0.14358795 0.022231985 0.032380905
0.26057017 0.36666018 0.013257103 0.040286355 -0.0118950205 0.104042605 0.013509207 -0.1251085
-0.04792229 0.17480871 -0.1360735 -0.16268405 0.00018026098 -0.19306484 0.21240227 -0.061088912
0.010533033 0.0075368215 0.014241132 -0.18718912 -0.027383113 -0.07928097 -0.062241927 -0.00090913236
0.18969722 -0.1223182 -0.27868468 0.278966 -0.055120967 -0.16064404 -0.19405584 -0.0046529863
0.5470627 0.5195722 0.4940557 0.17546132 0.37648833 0.2801292 0.44562533 0.21823175
0.17475137 0.19627765 0.16271517 0.035251886 0.1518961 -0.03143088 0.014149823 -0.2706904
-0.20982829 -0.006180662 -0.34680095 -0.118169144 -0.33219373 -0.19754095 -0.040919494 -0.19362974
-0.14982167 -0.3021774 -0.077109076 -0.22509699 -0.011622032 0.29281348 0.122291215 -0.14334162
-0.06680286 0.011850636 0.17120524 -0.18956654 -0.32335472 -0.21106265 -0.072269194 0.09660916

stage1.1.weight f4 [16]
00000000: b343 3d3f 0091 7b3f 0d4d 6d3f 85c5 833f
00000010: ea7d 513f d98b 843f 8b04 833f c2f3 713f
00000020: ee49 703f 7465 523f 9cd4 8e3f 9453 6b3f
00000030: d327 6c3f 62ae 733f d49b 853f 7f4f 673f
0.73931426 0.9826813 0.92695695 1.0294653 0.81832755 1.0355178 1.0235761 0.9451257
0.9386281 0.82186055 1.1158633 0.91924405 0.92248267 0.9518796 1.043818 0.90355676

stage1.1.bias f4 [16]
00000000: ea0e 09be a5c7 17be 540e 013f b932 9a3d
00000010: edf9 f0bd 7e5b b43c cee2 41bd 1ec6 023e
00000020: dcff dfbe 9520 2e3f 0111 923d df61 2bbe
00000030: a2d8 883d 868d 7d3d f7a5 6f3d 2d5a 823e
-0.13384596 -0.14822252 0.5041249 0.07529206 -0.117664196 0.022016283 -0.04733544 0.12770888
-0.43749893 0.68018466 0.071321495 -0.16736554 0.066819444 0.061902545 0.058507886 0.25459424

stage1.1.running_mean f4 [16]
00000000: b46d 9f3f 20de 803f 4344 d73e 8774 c9be
00000010: de11 c9bd 51d0 17be 5625 fb3e 4fa0 d23f
00000020: 00cf 34bf 9b40 9fbc 875a 41bf 6393 65bf
00000030: 3a06 be3f d263 44bf 1534 673e 0b79 b2bd
1.2455354 1.0067787 0.42044267 -0.39346716 -0.09817861 -0.1482556 0.49051923 1.6455172
-0.70628357 -0.019439986 -0.7552876 -0.8967802 1.484565 -0.76714814 0.22578461 -0.08714493

stage1.1.running_var f4 [16]
00000000: 4329 773e 2e6e 2b3d 3361 9e3e 7b73 c93e
00000010: e991 c73d 3550 643e 03c3 a03c 17ca 1c3f
00000020: 2535 233d bd26 233e 2700 3b3e 5f2c 443e
00000030: 0583 7b3e adfa 2a3e 44c1 9e3d e8c5 7a3e
0.24136834 0.041853122 0.30933532 0.39345917 0.09744627 0.22296222 0.019624239 0.61245865
0.039845604 0.15932746 0.18261777 0.19157551 0.24561699 0.16697188 0.07751706 0.24489558

stage2.0.weight f4 [32, 16, 3, 3]
00000000: 4e01 2fbe aa21 3d3c 08c5 a1bd d3d5 923d
00000010: 51a1 5fbc 96b2 95be 7af4 5fbd 9343 9dbd
00000020: e571 62bd 7d8c 5abd 1f4c 383b 3f33 34be
00000030: 0acb afbd a698 213d 55d5 81be d1a9 02be
00000040: a51c 0bbe d172 09be 6535 99bd 6256 42bd
00000050: 8d88 f33d 20dd 79be 17f2 3d3d 8427 74be
00000060: c753 ae3d b9cd 19be 8763 0abe 6af9 8dbe
00000070: f540 253b a018 513e 578b 08be 5534 01be
00000080: 1def db3d 5d70 1fbe ef7f 15bd 6bf2 8c3d
00000090: d49e 273d bb5d 953c 970f 113e b3d0 89bd
000000a0: f98b 0ebe 40e1 103e c53f 37be 245b 03be
000000b0: 1847 103d 7dea c23d 0132 fd3c 036a 003e
000000c0: 45cf 70bc a0e5 643d 7be1 ad3c 6048 3b3d
000000d0: 582b b33e 23ae 213e 5d1c 3c3d aaa5 c4bd
000000e0: 51e3 31be 89ea 69be 72ef cc3e f4ca 113e
000000f0: d094 8a3d e500 87bc 65e7 383e a070 aebd
00000100: f6d2 093d aa3f 3ebd 1c8d ce3d 684f 0f3e
00000110: 0e19 853e 2ded b03c 57f1 95bd f50c 8ebe
00000120: 72d9 27be 2800 3dbc 1ebe f1bc c951 c3bc
00000130: 62b8 c3be 9b49 aebc 5c60 77be 13f2 a7be
00000140: a985 88be cd0a a5be b939 95be 64c5 8abe
00000150: b7f5 85bd 1fe0 59be 5b99 4abe 726f 1fbd
00000160: 468b 14be 0dd8 bfbc 2561 afbe a069 acbe
00000170: 9953 17bd 3db3 dfbe 6cd5 e9be 8f68 e7bd
00000180: 690f 8abd bbfc 30bd 5620 803e 4b38 01be
00000190: 4c9d fbbd 8746 e9bd d179 2bbe 8dd4 a9bd
000001a0: 3e9a 84bd efbb 093d 39e8 ffbd 08d7 b03d
000001b0: cc0e 893a 6345 91be 4f29 5e3d e088 7dbe
000001c0: aecd 97be 9b48 0fbe e292 df3a e410 76be
000001d0: 7434 52bd 2c48 dabc 301c 87bd 9009 cf3d
000001e0: 30a0 a1bd 39f9 fe3c f9d7 313d 870e 5ebc
000001f0: b478 363e 1135 1fbd 470d 4ebd e9b9 7f3d
00000200: b49e 82bc 1b6b d03d 89a7 c8bc e368 dabd
00000210: 8753 123e 0e1d 4c3e baa8 853d adaf 2cbd
00000220: ba20 183d c5c4 e73c 22b0 d6bd 4c7f 6bbe
00000230: a70a ca3b 2441 babd e89b 90bd 8769 62be
00000240: 9993 b83d c069 e0bd f669 0d3c 5d1e 8f3d
00000250: b8a4 283d 288e 4dbd cc05 813d 9195 ef3c
00000260: 4110 6c3d 3d00 ae3d b1a8 b2bd b3b3 0ebe
00000270: 86b1 9c3d f287 d63d c017 ab3d e938 cb3c
00000280: 1f1e 053e c7f0 9f3d 8223 c13d 62b7 c0bd
00000290: 7261 e03d 8ca4 2ebe 0873 eabd 6d87 48be
000002a0: fb0d bfbd 21ce 9dbe 47ad 8abe 2f91 d33d
000002b0: d557 30be eb62 a83d 1792 ff3c f392 a83c
000002c0: 9fc9 4a3e 1992 4cbe aed5 0cbc 6313 a73d
000002d0: 7c9e 533d 683a 9bbc a318 1ebd b8c4 da3d
000002e0: c9b5 223d 85e9 ed3c 0779 0d3c 44b6 c53b
000002f0: 895c 183e b6f1 31be 5184 ecbd 3a5e 59be
00000300: 5165 a8bd 38a1 9bbd f354 39be 5a5e f5bd
00000310: bcda 5ebe 6b8e a3bd b92c 96bd 3628 dfbc
00000320: b684 a43c a9ac 66bd a37a 56be dd1a 0a3d
00000330: bf31 0fbe 5254 cabd 2652 2abc 10a4 94bd
00000340: cdef 51bd eb06 b4bc 0131 40bd e00f 3d3d
00000350: a1a0 55bd a40f ab3d f10d c5bb 955a ccbb
00000360: 5f71 81be ce62 01be 89f7 e73c 0ac3 13be
00000370: 4f6c a3be 4639 e1bd 799e 9cbe a97e 50be
00000380: c533 67be bb55 92bd 97df a0bd 5fd8 5bbe
00000390: bbf7 7bbe 3944 50be 27dc 91be 68fa 41be
000003a0: d793 8fbe f924 74be 15d4 bfbd f5c7 37be
000003b0: 3380 ab3d b8fe e6bc 8615 95bd ca27 9c3d
000003c0: f13b 773e e47e d8bd e361 e43d c819 a1bd
000003d0: 7c60 0abd daae e4bd 6e57 133d 43b0 b13c
000003e0: 798f 0abe f5ea 913d 51ed 4cbe dcff 79bd
000003f0: 7fc6 0bbd 54a2 033e 81b4 2fbe 5511 88be
-0.17090341 0.011543671 -0.07898909 0.0716969 -0.013649301 -0.29237813 -0.05467651 -0.076789044
-0.0552844 -0.053356636 0.0028121544 -0.17597674 -0.085836485 0.039452218 -0.25358072 -0.12760092
-0.13585146 -0.13422705 -0.07480887 -0.047445662 0.11891279 -0.24400759 0.046373453 -0.23843199
0.08512073 -0.15019883 -0.13514529 -0.2772935 0.002521572 0.2041955 -0.13334404 -0.1261762
0.107389666 -0.15570207 -0.03649896 0.06882175 0.040922955 0.01823317 0.14166103 -0.06729259
-0.13920583 0.14148426 -0.1789542 -0.12827736 0.03522405 0.09517381 0.030907633 0.1254044
-0.014697854 0.05588305 0.021225682 0.04572332 0.34994006 0.15789084 0.045925487 -0.096019104
-0.1737187 -0.22843374 0.40026432 0.14237577 0.06766665 -0.016479919 0.1805702 -0.08517575
0.033648454 -0.046447434 0.10085508 0.13995135 0.25995678 0.02159747 -0.073214225 -0.2774426
-0.16391543 -0.011535682 -0.0295096 -0.02384271 -0.3822661 -0.021275332 -0.24157852 -0.32801875
-0.26664475 -0.32234803 -0.291456 -0.27103722 -0.06541007 -0.21276902 -0.19785063 -0.038924642
-0.14506254 -0.02341845 -0.34253803 -0.33674335 -0.03694496 -0.43691435 -0.4567064 -0.1129924
-0.067412205 -0.043209773 0.2502467 -0.1261913 -0.122858614 -0.11390405 -0.16745688 -0.08292494
-0.06474732 0.033626493 -0.12495465 0.08634764 0.001045668 -0.2837325 0.054238614 -0.24759245
-0.2964911 -0.1399254 0.0017057324 -0.24029881 -0.051319554 -0.026645742 -0.06597173 0.10109246
-0.078918815 0.031124698 0.04341886 -0.013553268 0.17819482 -0.038868967 -0.05030563 0.062433157
-0.015944816 0.10176679 -0.02449395 -0.10664537 0.14289676 0.19932958 0.06526323 -0.042159725
0.037140585 0.02829207 -0.104828134 -0.22997779 0.0061658206 -0.09094456 -0.07060987 -0.22110568
0.09012527 -0.1095767 0.00863122 0.06988213 0.041172713 -0.0501844 0.06299934 0.029246124
0.05763269 0.08496139 -0.087235816 -0.13935737 0.076510474 0.10475148 0.08354139 0.02480741
0.12999772 0.078095965 0.09430601 -0.094099775 0.10956086 -0.17054957 -0.11447722 -0.19582911
-0.093288384 -0.30821326 -0.27085325 0.10330426 -0.17221005 0.08221992 0.03119759 0.020577883
0.19803475 -0.19977607 -0.008595867 0.081579946 0.051664814 -0.018948749 -0.038597714 0.106820524
0.039724145 0.029042015 0.008634812 0.0060336906 0.1487905 -0.17377362 -0.11548675 -0.21227351
-0.082224496 -0.075991094 -0.18098812 -0.11980887 -0.21763128 -0.079861484 -0.07332749 -0.027240854
0.020082813 -0.056317005 -0.2094522 0.033717025 -0.1398382 -0.09879364 -0.010395562 -0.07257855
-0.051254082 -0.021975955 -0.046921734 0.046157718 -0.05215514 0.083525926 -0.006013625 -0.006236384
-0.25281808 -0.12635347 0.028316276 -0.1442987 -0.3191857 -0.10997252 -0.30589655 -0.20360817
-0.22578342 -0.07145258 -0.078551464 -0.21469258 -0.2460622 -0.20338525 -0.28488275 -0.18943179
-0.2804248 -0.23842229 -0.09366623 -0.17947371 0.083740614 -0.028197631 -0.07279496 0.07624777
0.2414396 -0.105710775 0.11151483 -0.078662455 -0.03378342 -0.11166163 0.03597205 0.021690493
-0.13531293 0.071248926 -0.20012404 -0.061035022 -0.034124848 0.12854892 -0.171587 -0.26575723

stage2.1.weight f4 [32]
00000000: c6ea 903f 5498 803f c5dc 5c3f 71a4 603f
00000010: d915 7d3f c378 753f 6d7a 7c3f 0154 743f
00000020: 40df 803f d04a 553f 5034 543f ef5a 643f
00000030: 6cb3 733f 20ba 7d3f f841 793f bc0b 5c3f
00000040: e34b 693f 74e4 343f 3639 703f b78c 523f
00000050: c1f4 583f 4c05 623f 2716 7d3f 8c08 743f
00000060: 8131 703f fb55 723f 7ea7 803f 8df8 433f
00000070: d0da 813f 649a 3d3f ccc5 463f 23dd 763f
1.1321647 1.0046487 0.8627437 0.8775092 0.9886146 0.9588739 0.98624307 0.9544068
1.006813 0.8331728 0.8289232 0.89201254 0.9519565 0.9911213 0.97366285 0.85955405
0.9113142 0.7066109 0.93837297 0.82245964 0.84748465 0.8828933 0.98861927 0.9532554
0.93825537 0.94662446 1.0051115 0.76551133 1.0144901 0.74063706 0.77645564 0.9643118

stage2.1.bias f4 [32]
00000000: da11 e2bd 2c5f 2a3e 24f9 74be b0e0 f2bd
00000010: 87c7 4ebe b7aa 443c 18c8 92be 3208 04bd
00000020: 4f14 0b3e b081 47be 5381 2cbd 133d cb3c
00000030: 0f33 0cbe a28c e5bd 42c9 9ebd d117 433d
00000040: 1a3f e0bc f369 12bb f141 20be ded4 2cbe
00000050: a6cb 31be 052e 8fbd 89ca a8bd a975 61be
00000060: eb2e d639 bce1 b5bd 1c78 3cbe d981 13be
00000070: b039 093e e2ea 9e3b dc01 17bd 2856 873d
-0.11038561 0.16637868 -0.23923165 -0.11859262 -0.20193301 0.012003592 -0.28668284 -0.03223438
0.13581966 -0.19483066 -0.04211552 0.024809396 -0.13691352 -0.11208464 -0.07753231 0.047630135
-0.02737384 -0.0022340983 -0.15650155 -0.16878077 -0.17362842 -0.069911994 -0.082417555 -0.2201754
0.00040852217 -0.08880946 -0.18405193 -0.14405002 0.13400912 0.0048497776 -0.036867008 0.0660823

stage2.1.running_mean f4 [32]
00000000: 3c24 50c0 5f48 60c0 5ab2 293f e06e a43f
00000010: 565b 15c0 6a48 f7be ced6 3fc0 578c 813f
00000020: d350 35c0 3173 063f e7ad 9cbe 5cd1 163f
00000030: 7961 1f40 bf37 57c0 0dc4 da3f 3276 f2bf
00000040: 0505 50bf 11cb c2bf 0ccf d2bf affa 923e
00000050: a4a2 263f 2716 c3bf 60f1 863e 37c3 44c0
00000060: 5c38 363f a8a6 62bf 3479 4ec0 0d4d 2ec0
00000070: fdcf 10c0 8c7b a7bf f09e c6be f772 f43f
-3.2522116 -3.5044172 0.6628777 1.2846336 -2.3336997 -0.48297435 -2.9974856 1.0120953
-2.833058 0.5251952 -0.30601427 0.5891321 2.4903243 -3.3627775 1.709108 -1.894232
-0.8125766 -1.5218221 -1.6469436 0.2870688 0.6509192 -1.5241135 0.2635603 -3.074415
0.7117975 -0.8853555 -3.2261477 -2.7234528 -2.2626946 -1.3084579 -0.38793135 1.9097584

stage2.1.running_var f4 [32]
00000000: bbc1 de3f c93a 8541 3483 8e40 fadf ce40
00000010: 6080 dc3f e24b 9c3f 1428 0a40 195d 4b40
00000020: 559f 7841 9a40 2540 0001 f03f 4ff9 3c41
00000030: 5766 5d40 7fc9 cd40 eb35 9340 c6d6 6840
00000040: 72b6 6740 ec32 3e40 232b ca3f 3410 5640
00000050: c64c ca40 55c1 0140 a2cc 9140 60d4 ac40
00000060: dd93 9f40 bc43 c23f ec2c 5140 97b0 8d40
00000070: 4dae 4641 fd43 fe40 8dda e83f 914c 4640
1.7402872 16.653704 4.453516 6.464841 1.7226677 1.2210658 2.1586962 3.1775572
15.538899 2.582068 1.8750305 11.810866 3.4593713 6.4308467 4.600332 3.6381087
3.6205106 2.971858 1.5794414 3.344739 6.3218718 2.027425 4.5562296 5.4009247
4.9867997 1.5176921 3.2683668 4.4278064 12.417554 7.9457994 1.8191696 3.0984232

stage3.0.weight f4 [64, 32, 3, 3]
00000000: 4039 69bd 5b06 8a3e 11e5 223e 52b7 d4bc
00000010: 15f4 31bc 3455 463e f0da 11be 1d5a 273d
00000020: c866 8d3b 5e8f eebc 2d71 e73b ec46 39bc
00000030: 77c9 ba3d d632 98bc 2b7e 31bd f6b6 98bc
00000040: 08a0 92bd 1624 b3bc d5bd 96bd 1ee2 c9bd
00000050: dc3a 8dbd bc98 7fbd 86ce 74bd a2e8 7abd
00000060: 1b9c 91bd abd4 3dbd 6ce9 8cbd cf83 213d
00000070: 5749 bb3d 1cd6 993c 05ff 27bd d131 83bd
00000080: 13fb 663d fb95 5fbc e876 15bd 9c21 d93c
00000090: 17a3 7b3d aa1c 223d 1be2 dbbc 6474 a53d
000000a0: 3d83 3a3d 6f34 3bbd efd9 eb3d d73b 8f3d
000000b0: 4677 52bc b073 b3bc c88f 92bd 7784 cabc
000000c0: 4287 f33b 934f ec3d 8029 303d 220e ba3c
000000d0: ea28 ddb9 ef4e 85bd 390f 283d 670f 513e
000000e0: 35c9 213e 1982 27bd 5c26 e13d 5c9f 163e
000000f0: 7d42 12be 6206 afbd bce8 ac3d b872 723c
00000100: 1e3c d5bd 2b01 7b3c 21e5 da3d 2870 283d
00000110: 4c03 bebc 0a35 a23c c353 a93d d6de c03d
00000120: 6014 59bc 7a67 aabc 23dd 4c3c c7b9 863c
00000130: 481d 50bd 4466 c7bc cf79 e73b 0ff6 fd3c
00000140: e644 843c 93f3 583d 7a5e 68bd 8cb7 4abd
00000150: 9531 123d 2052 b63c 03f4 c63d 1fe0 433c
00000160: cd90 36bc d068 eeb9 24f6 62bd 29ba a23c
00000170: 64db fc3c 4d5a ddbd 706a 95bd 6563 51bd
00000180: f560 8abd 95dd d3bd 6dd0 d9bc af06 673c
00000190: 1fd2 063b 16ad 66bc efe1 d0bc 6824 69bc
000001a0: d308 81bd aaac ae3b 7fe0 0f3c 0a94 a63c
000001b0: b52f 743d ea3d f2bd 7e31 b4bd cd5e 3c3d
000001c0: e8dd 02bd 121a 20bd 0c80 8f3d 7ac8 ec3d
000001d0: 4aa9 843d 031f 98bd 4e4b 003c 3cc7 3a3c
000001e0: cff7 fdbd 27d4 b13c f158 503d 2999 e0bd
000001f0: a55c 24bc 09f0 4dbd 22f5 b83c 235a 0a3e
00000200: 0db7 fb3d 6a29 19bd f7cc 0fbd 0150 b13d
00000210: 9d0b 90bc 7c0c d0bd e570 603d 7c11 f5bd
00000220: 2e11 4fbd 528c 63bc c78b cebd 6938 c0bd
00000230: 0a24 993c a8b9 1cbe bf58 12be ceff 9fbd
00000240: 5b79 f83d 199d f83d 9cd3 f93d 9cd6 52bd
00000250: a963 003e d218 ac3d a531 9ebc e1d2 8dbd
00000260: e191 c73d f5b2 7fbd 6cc3 9cbd 9d05 d73c
00000270: 6459 f4bd 38e7 84bd c3b6 1bbd 9e76 d5bd
00000280: a588 ffbd 8d89 e3bd 0b45 53bd 70fb a7bd
00000290: d323 c1bd f831 a5bd 99c8 0bbd f8f8 62bd
000002a0: 2701 06be 2dbf c8bd 69cf 4dbd 8b4b 94bc
000002b0: a670 49bd 4d2c 163c d5f7 25bd 1b60 31bd
000002c0: 715e 8ebd c5dd 2a3d a240 5abd 5ce6 913b
000002d0: f1e2 863d a0ac 1539 b133 d53c 0de9 f63d
000002e0: 7b0e cd3c ede2 eb3b 6fa0 d53d 80f4 b53c
000002f0: 7087 b4bb 1133 4cbd 48bf 563b dcc2 1e3c
00000300: ae85 0abd 1537 61bd 92b6 4e3d 20f3 08be
00000310: 9bdd 1dbd ad64 d1bd 075f e5bc 7467 0c3e
00000320: 2222 c53d 56f8 25bd bba3 c0bd e9ca 5ebd
00000330: d990 94bd 4603 73bd f287 e3bc bf77 283d
00000340: 12da a93c 2a26 003e f523 c0bd b687 f5bc
00000350: 0375 183d db7d 00bd ae2a 86bd 6d4b bc3d
00000360: 0604 84bd 071f 00be 368e a8bd 58b3 cdbd
00000370: d04d d8bd 91d0 bbbd 7c58 b3bd f1d4 dabc
00000380: c838 16bd 69b2 1fbe b4c4 913c 6cf6 29be
00000390: 7756 48bd 8869 273e f29f 833d f9e3 26be
000003a0: d28a 40be 4152 32bd a5f5 053e 1106 0f3e
000003b0: 3134 583d 243c bcbd 48be 933d 8261 8f3d
000003c0: 23f3 06be b025 d6bb 135f 95bd cb6f ad3c
000003d0: 3c3b a03d 27ec 52bb a639 a53c c989 a3bc
000003e0: e2e9 04bc 8cc8 bebd d465 32bd 9571 65bd
000003f0: bf50 c7bc b06f a1b9 b25f 15bc d570 303d
-0.056939363 0.26957974 0.15907694 -0.02596632 -0.010861416 0.1936844 -0.14243674 0.040857423
0.004315231 -0.029121097 0.007063052 -0.011308413 0.091204576 -0.018578928 -0.043333214 -0.01864193
-0.0715943 -0.021867793 -0.07360426 -0.098575816 -0.06895992 -0.06240152 -0.05976727 -0.061257012
-0.07109853 -0.046345394 -0.06880459 0.039432343 0.09144848 0.018778853 -0.04101469 -0.06405986
0.056391787 -0.013646598 -0.03649035 0.026505284 0.06143483 0.039578117 -0.026841214 0.080788404
0.045535315 -0.0457043 0.11516177 0.069938354 -0.01284582 -0.02190575 -0.0715633 -0.024721367
0.0074318955 0.11538615 0.043008327 0.022711817 -0.00042182888 -0.06509196 0.041030142 0.20416032
0.1579941 -0.040895555 0.109936446 0.14709228 -0.14283176 -0.08546139 0.08442828 0.014797859
-0.10411857 0.015320103 0.10688234 0.041122586 -0.023194931 0.019800682 0.082679294 0.094175026
-0.013249487 -0.020801295 0.012503895 0.016446007 -0.050809175 -0.024340756 0.0070640813 0.031001119
0.016146135 0.052966665 -0.056730725 -0.04949145 0.035691816 0.022255957 0.0971451 0.01195529
-0.011142922 -0.0004547299 -0.05541052 0.019864159 0.030866332 -0.10808239 -0.07295692 -0.05112018
-0.06756774 -0.10344998 -0.026588643 0.014100715 0.002057202 -0.014079353 -0.025498359 -0.014229871
-0.06300511 0.0053306418 0.008781551 0.020334262 0.05961581 -0.118282154 -0.087985024 0.045988847
-0.031949908 -0.039087363 0.07006845 0.11561675 0.06477602 -0.0742779 0.007830454 0.01140004
-0.12400781 0.021707607 0.05086607 -0.10966713 -0.010031854 -0.050277743 0.022577826 0.13510947
0.122907735 -0.03739301 -0.03510758 0.08657838 -0.017583663 -0.10158631 0.054795165 -0.119662255
-0.050553493 -0.013888435 -0.10085254 -0.093857594 0.018693943 -0.15305197 -0.14291666 -0.07812463
0.12132522 0.12139339 0.121985644 -0.0514742 0.12538017 0.084031716 -0.019310782 -0.069249876
0.09744621 -0.062426526 -0.07654461 0.026247794 -0.119311124 -0.06489414 -0.038016092 -0.10423015
-0.12477235 -0.1111022 -0.051579516 -0.08202255 -0.09430661 -0.080661714 -0.03412685 -0.055413216
-0.13086377 -0.09802089 -0.05024663 -0.018102428 -0.049179696 0.009165836 -0.040519554 -0.043304544
-0.06951607 0.041715402 -0.053284295 0.00445251 0.065862544 0.00014274055 0.026025625 0.1205617
0.025031319 0.0071986825 0.10430991 0.022211313 -0.0055093095 -0.04985339 0.003276782 0.009690013
-0.033818893 -0.05498417 0.05046708 -0.13373995 -0.038541418 -0.102242805 -0.027999414 0.13711339
0.09625651 -0.040520035 -0.09406229 -0.05439273 -0.0725419 -0.059329294 -0.027774785 0.041129824
0.020733867 0.12514558 -0.09381858 -0.029971939 0.037220966 -0.031370025 -0.06551109 0.09194074
-0.0644608 -0.12511836 -0.082302496 -0.10043973 -0.105617166 -0.0917064 -0.087571114 -0.026712867
-0.036675245 -0.15595402 0.01779399 -0.16597909 -0.048910584 0.1634885 0.064269915 -0.16297902
-0.18802956 -0.043535475 0.13081987 0.13967158 0.05278415 -0.091911584 0.07214028 0.0700102
-0.13178687 -0.0065352544 -0.072935246 0.021171471 0.07823798 -0.0032184215 0.02016909 -0.019963162
-0.008112403 -0.09315595 -0.043554142 -0.056016523 -0.024330495 -0.00030791527 -0.009117054 0.043076355

stage3.1.weight f4 [64]
00000000: c237 453f 0cad 6f3f 3f28 5d3f 11b7 4a3f
00000010: c222 483f 8be0 493f 8cec 863f dde8 773f
00000020: c95b 4c3f b8e4 823f 5e13 3f3f 33a9 663f
00000030: 2723 683f 483b 6c3f 1239 583f fdaa 873f
00000040: 6488 843f 4f77 803f 3f23 623f d906 563f
00000050: 21ed 633f d3e6 713f 929a 583f 87f8 5f3f
00000060: bbfd 8e3f 75c5 633f 2995 553f 00bb 4e3f
00000070: 3272 393f dcd9 6e3f 78a3 573f fa04 613f
00000080: a2b9 733f 8535 543f ccd7 473f cabb 5e3f
00000090: 72bb 843f 8f1c 5b3f 8614 663f 098d 783f
000000a0: 24d7 633f 597f 8e3f ee69 8f3f 5b5f 4e3f
000000b0: 7555 4d3f d5e8 5a3f e395 7f3f 94ae 813f
000000c0: b6de 793f 0ca8 663f de6f 673f 01c4 4d3f
000000d0: 7cc1 3a3f a7d6 4d3f a562 5c3f 6933 663f
000000e0: 5a6b 303f 3f99 593f 34dd 493f a436 3b3f
000000f0: 15d2 753f e039 6f3f 9645 773f 4cd6 733f
0.77038205 0.93623424 0.86389536 0.7918559 0.78178036 0.7885825 1.0540938 0.96839696
0.79827553 1.022605 0.74638927 0.9010193 0.9067864 0.92277956 0.8446208 1.0599056
1.0354123 1.003641 0.8833503 0.836042 0.89033705 0.94492835 0.84610856 0.874886
1.1171182 0.8897317 0.83430725 0.8075409 0.72439873 0.9330118 0.8423381 0.8789822
0.9520513 0.82894164 0.78063655 0.87005293 1.0369704 0.8559045 0.89875066 0.970902
0.89000154 1.1132613 1.1204202 0.8061425 0.8020852 0.85511523 0.99838084 1.0131402
0.97605455 0.9010017 0.9040507 0.80377203 0.72951484 0.8040566 0.8608802 0.89922196
0.68913805 0.8499946 0.78853154 0.7313025 0.96023685 0.93447685 0.96590555 0.95248866

stage3.1.bias f4 [64]
00000000: 0973 c5bd d245 1f3e efd5 8cbd eb37 23bb
00000010: 7a95 0bbe 6b68 efbd 92cb 9dbc 92a2 90bd
00000020: 20f6 c7bd 4da0 423d 2c0e d8bd af9d 2dbe
00000030: 6b6f 5ebd 7efb aabd fff4 0ebe 1fc1 55be
00000040: ae80 a8be 1cc9 863d 4b28 45be 1a13 eebd
00000050: ab80 b7bd af18 80bd 4042 04be 4ce1 64be
00000060: 421a 87bd 021d 313e 3706 14be d9c4 6ebc
00000070: 3956 26be 3c29 63bd edfc cfbd 604e e4bd
00000080: d8bd 1dbd 01e1 183c 8ad6 4fbe 5d48 1dbe
00000090: c755 50bd 9a75 6fbe 61c2 ed3b ceb3 1a3c
000000a0: ee37 0cbd a6d6 983d 0405 0d3e b4fb 103d
000000b0: a59c 073e 5b2e 45bd 018d 1bbe ce54 543e
000000c0: 4c3f b2bd 3685 793d ac13 43bc 5dd1 5bbd
000000d0: f293 73be f0bc 4bbe d190 1abe 45ba 9abd
000000e0: a779 37be c851 c9bd b85b e4bd 64a4 02be
000000f0: 5e60 07bd 56fb 563e 3e2c 91be ff9d 45be
-0.09641082 0.15553978 -0.06876742 -0.0024905156 -0.1363124 -0.11689838 -0.019262109 -0.07062258
-0.097637415 0.047516156 -0.10549578 -0.16954683 -0.054305475 -0.083487496 -0.13960646 -0.20874451
-0.32910675 0.06581327 -0.19253652 -0.11624737 -0.08960088 -0.06254708 -0.12915897 -0.22351569
-0.06596805 0.17296222 -0.14455496 -0.014573299 -0.16243829 -0.055459246 -0.10155664 -0.11147761
-0.038511127 0.009330989 -0.20296684 -0.15359636 -0.050863054 -0.23384705 0.007255838 0.009442283
-0.034233026 0.07462816 0.13771445 0.035396293 0.13243349 -0.04813991 -0.15190507 0.20735475
-0.08703479 0.060918055 -0.011906546 -0.05366646 -0.23786905 -0.19896293 -0.15094306 -0.07555059
-0.179175 -0.09830052 -0.111503065 -0.12758023 -0.033050887 0.20994315 -0.28354067 -0.19298552

stage3.1.running_mean f4 [64]
00000000: 4a32 f1be 4ef8 aabf 1f30 40c0 4a70 a6bf
00000010: e6d2 ff3b 31da d93f 8c7b 58c0 8078 e0bf
00000020: 14f4 acbe b9a0 5ec0 1e0d 8bbf a600 e0bf
00000030: 06d6 73be 786e 623e 4b7d 3a3f 315f b3bf
00000040: b92a 3940 f426 1cc0 60cc b0bf f211 293e
00000050: faf4 5f3f 54c3 17c0 e7b6 33be fb02 3dc0
00000060: ce80 eb3e 825a 82bf cee8 68be 3a12 d8bf
00000070: 1389 b3bf feac 0240 2c34 5a3f 81e8 913e
00000080: ec89 78bf a9dc 47c0 8fb3 933f fa0b fe3e
00000090: f3ef c1be 89d8 1abf abfd 9bbf 51d7 a53f
000000a0: 82ce cc3f 96b6 fe3d 41e1 c0bf 4a49 ae3e
000000b0: f851 1dc0 0e62 1740 cbe6 37c0 8ef7 b3be
000000c0: f46c 67bf c1be 56bf 5f7d 8abf 0356 8abf
000000d0: 0b97 04c0 4b4f 61bf 58b6 243f eac7 66c0
000000e0: 164f 0d40 2f65 2dbf 82da 27c0 0b6d 6cbf
000000f0: 2f12 94bd 3171 d3bf 1fad 99bd 38fd cf3e
-0.4710868 -1.3357027 -3.002937 -1.3003018 0.0078071235 1.7019712 -3.3825407 -1.7536774
-0.33779967 -3.4785597 -1.0863378 -1.7500198 -0.23812112 0.22112453 0.7284743 -1.4013425
2.8932326 -2.4398775 -1.381237 0.16510752 0.8748318 -2.371297 -0.1755024 -2.953307
0.45996708 -1.0183871 -0.22745058 -1.6880562 -1.4026207 2.0418086 0.8523586 0.284977
-0.9708545 -3.122843 1.1539172 0.49618512 -0.3787838 -0.60486656 -1.2186788 1.2956334
1.6000521 0.12437169 -1.5068742 0.3404029 -2.458128 2.3653598 -2.8734615 -0.35149807
-0.90400624 -0.8388482 -1.081951 -1.0807499 -2.071719 -0.88011616 0.64340734 -3.6059518
2.207952 -0.6773252 -2.6227117 -0.92353886 -0.07230031 -1.6518918 -0.07503723 0.40622878

stage3.1.running_var f4 [64]
00000000: 809e b63f c76b 2240 c9f2 3f40 dca7 d840
00000010: d418 e33f 9953 1540 ec05 df40 8e75 f83f
00000020: c973 e540 a318 9d40 5cce b440 ef67 2a40
00000030: aad8 1040 2d41 0541 d708 d740 a634 ae40
00000040: a899 4240 2eca c140 4e33 7b40 bd58 3b40
00000050: a878 d840 c427 7040 71c6 6a40 7496 f23f
00000060: 88e7 5f3f 036c 0d41 0ff1 2540 9919 bc40
00000070: c77e 6f3f bacd 2540 09ad a140 06f0 e940
00000080: 3d0d 4240 5881 4440 ceb5 e13f 6a46 a23f
00000090: 06f6 8f3f 3556 4440 68b1 2041 e0c0 0c40
000000a0: 653b 8841 8815 8440 ac9a bf40 498f 8d40
000000b0: 8d5e c740 857a af41 d82e 9e41 0d80 4d41
000000c0: b95b 6541 2b48 0841 309b 7540 e79f b440
000000d0: 3a61 0840 7b00 773f 8d36 6c40 d87b 8d40
000000e0: 8e15 c63f b2e7 ef40 f839 5d40 f8bc 5b40
000000f0: 54df fb40 6b4c 0741 7a9c 7c3f 2850 4940
1.426712 2.5378282 2.9991934 6.7704906 1.7741952 2.3332274 6.969473 1.9410875
7.170384 4.9092574 5.6501904 2.6625936 2.2632241 8.328412 6.719829 5.443927
3.0406284 6.05593 3.9250064 2.9272912 6.7647285 3.752427 3.668362 1.8952165
0.87462664 8.83887 2.592838 5.8781247 0.9355282 2.5906816 5.0523725 7.3105497
3.032058 3.0703945 1.7633607 1.2677739 1.1246955 3.0677617 10.043312 2.1992722
17.029001 4.1276283 5.987631 4.423741 6.230292 21.934824 19.772873 12.843762
14.334893 8.517619 3.837597 5.6445193 2.1309342 0.9648511 3.6908295 4.4213676
1.5475328 7.497033 3.4566631 3.4334087 7.8710117 8.456157 0.98676264 3.1455173

stage4.0.weight f4 [64, 64, 3, 3]
00000000: 367b f4bc 8fb8 40bd cec4 acbc fc40 99bd
00000010: c807 6bbd 419c 48bd 6b0f 54bd a441 8abd
00000020: dfaa 60bd 1f7a 6cbd 5346 aebd 36fd 2abd
00000030: d5ab 8ebd 7962 d2bd 3715 b2bd 76d7 a6bc
00000040: 2ebc b9bd c2be 3fbd ac21 dc3b 9edd 7abb
00000050: a59a dbbb 7f17 4b3d f962 b2bd 0d3a 693d
00000060: 4e53 d9bc 5be7 c63d 959b 53bb c975 7abd
00000070: f913 a1bd 2e84 89bd d174 7dbd 6602 c5bd
00000080: 0f1a 93bd 587b 98bd be82 b5bd 9f23 8abd
00000090: 6a20 db3c deb1 733d 440a 863c 7bf2 503d
000000a0: 2190 203d f22f 963c 73ff 473c 700c a83c
000000b0: a6e4 a43c 1913 91b9 c815 1e3d 6fee 253d
000000c0: d387 983c 6065 563d 5389 273d 83c9 053d
000000d0: 84bd 513d 77d3 c93c a8e6 0a3d 678c dabc
000000e0: 0473 0d3d 6c95 cfbb 4aaf f33b 3acb 8abb
000000f0: 0807 343c 1250 1f3d 8db0 31bd 0e34 d43c
00000100: 332b 9e3c 6c6e 69bb 78f3 933d 9e6f 6dbb
00000110: 3e74 003d a445 1f3d 28ab 74bb aab6 723d
00000120: c31a 293d e389 833c ac14 843d bc55 d6bc
00000130: d140 0f3d 4ca5 e9bc 50c4 b1bc 94bd c7bc
00000140: ea1e 0c3c 3423 64bd 92e2 88bd bd63 b5bb
00000150: 16df adbc ff58 1fbd 9597 82bd 3ec7 073d
00000160: 7877 babc 3f31 f13b 5017 a6bd 2cff cabd
00000170: c83f a2bd 8fce 8abd 3809 ccbd c62d f2bd
00000180: 5d8a 90bd 79c1 cdbd cfac 5abd 0be2 4e3d
00000190: 38ce 35bd 5ecd fbbc 1ae6 4abd 4fdb 18bd
000001a0: b038 dabc 5f16 87bc 9081 1fbd c262 8fbc
000001b0: cee5 843d 37c4 883d e2dd 093d 76a5 b03d
000001c0: 650e 023e acc7 bb3d d138 973d eb53 d23d
000001d0: ad6a 7f3d 1d47 47ba 315b 7dbb 0058 9e3c
000001e0: 5f3d 143d 7309 babb 9cfb 13bc 3163 17bc
000001f0: 7170 323d 8cad 903c 4cc4 bcbc 06ef 2fbd
00000200: 4e86 7ebd cf73 8cbc d4ac 8bbc a43f 80bd
00000210: 7675 55bd 2045 61bd 1dee 2ebd da2a 4dbd
00000220: 89c6 2ebd 694a 87bc e2da dfbd 0baa 04bd
00000230: 7761 e5bc 2b44 3dbd 27a4 5cbd 7c8e e9ba
00000240: 6172 7bbd 22ad 9ebd 2787 4fbd 3e0f 5abd
00000250: fc7b 3dbd b5fa 83bd d155 aebd 5950 40bd
00000260: 0087 97bd 3fc0 6e3c d1f5 133c c86b 0e3d
00000270: c619 073c 6b80 d1bb 2992 0c3d c23c fb3c
00000280: 6c30 bc3c 1adb 7e3d fbb0 28bc 5371 44bd
00000290: 9e01 20bd af91 36bd 2d94 afbd 912d 86bd
000002a0: 98c8 05bd d8a8 64bd 156a 87bd e86d 313d
000002b0: a10b 0b3d 2f2c 733c ca92 503d ee1b 1f3d
000002c0: 0bbd 6c3c 8119 bd3c 1bee 553d d7c0 cbbc
000002d0: ddf7 8ebb 1c5a debb 2055 89bc 843c 7e3c
000002e0: fae2 003c da67 95bd e257 aabc 83b6 15bd
000002f0: 438e 88bd 7ae8 893c c156 183d 02dc 703d
00000300: 9547 aebc 223d 8c3c d44b 363d 4896 aabc
00000310: e2f6 1ebb 8a5d 853d 61fc b9bd ef89 adbd
00000320: 9098 e4bc 8317 9dbd d5ac b8bd 9629 c2bd
00000330: 3759 4ebd a70a 5bbd 0221 80bc e215 ad3c
00000340: ae98 d13c 2e66 9c3c 5dc0 3cbb 0a9d 45bd
00000350: ffc9 723b 14bc 923d 8635 09bc cdaf 093c
00000360: 3ba1 0c3c aaeb 47bc d383 563c ceeb 47bd
00000370: 6adc 96bd 6aed 25bd ac10 97bd 7d3f 42bd
00000380: fb1e 81bd 0109 393b 5d48 56bc a6cd 833b
00000390: 6484 d73c c8a8 42bd 61e4 91bc bf48 db3c
000003a0: c89a 9b3c dac7 46bc 32d9 20bd cfac 30bd
000003b0: 19cb 8dbc ebba a4bd dc07 94bd acb1 9abd
000003c0: 9ca4 3abd 2ab8 cabd ba5f 60bd 2a1a 863d
000003d0: e6fe 903b ee03 95bd 0211 233d d9e1 a33c
000003e0: 63df e23b 6a2b 5f3d 887d 4bbd e9e9 8bbd
000003f0: ee53 9cbc 1447 13bd 8f8b b5bc 44cd 69bc
-0.029843908 -0.04705101 -0.021089938 -0.07483098 -0.057380468 -0.04897714 -0.051772516 -0.06750801
-0.054850455 -0.05773365 -0.08509507 -0.041745387 -0.06966368 -0.102726884 -0.08695453 -0.020366412
-0.090690956 -0.04681278 0.006717881 -0.0038279067 -0.0067017847 0.049582954 -0.08710284 0.056940127
-0.02652898 0.09712096 -0.003228878 -0.061147485 -0.078651376 -0.067146644 -0.061878983 -0.09619598
-0.07182705 -0.07445401 -0.08862828 -0.067450754 0.026748855 0.0594958 0.016362317 0.051012497
0.039199952 0.018333409 0.0122069 0.020513743 0.02012856 -0.00027670784 0.03859499 0.04051059
0.018619454 0.052342772 0.040902447 0.03266288 0.051206127 0.024636967 0.033911377 -0.026678277
0.034533516 -0.006334951 0.0074366676 -0.0042356523 0.0109880045 0.03889472 -0.043381263 0.025903728
0.019307708 -0.0035618795 0.07224172 -0.003622986 0.031360857 0.038884774 -0.0037333462 0.059256233
0.041285288 0.01605696 0.06449255 -0.026163928 0.034973923 -0.028521203 -0.021700054 -0.02438239
0.008552292 -0.055697635 -0.0668384 -0.0055355714 -0.02122454 -0.038903233 -0.06376568 0.033148997
-0.022762045 0.007360607 -0.08109915 -0.099119514 -0.079223216 -0.06777679 -0.09962696 -0.11825137
-0.07057641 -0.100466676 -0.05338746 0.05050854 -0.04438612 -0.030737575 -0.04953585 -0.037318524
-0.026638359 -0.01649016 -0.03894192 -0.017503146 0.06489144 0.0667805 0.03365887 0.08625309
0.12700804 0.09168944 0.07383884 0.10269912 0.062357593 -0.0007601844 -0.003865909 0.019329071
0.03619134 -0.005677396 -0.009032156 -0.009239958 0.043564264 0.017660879 -0.02304282 -0.04295256
-0.0621398 -0.017145066 -0.017050184 -0.062621385 -0.052113973 -0.054997563 -0.04270755 -0.050089695
-0.042669807 -0.016514974 -0.109304205 -0.032388728 -0.028000576 -0.04620759 -0.053867485 -0.0017818953
-0.061388377 -0.07747866 -0.050666 -0.053237192 -0.04626082 -0.06444303 -0.08512462 -0.046951625
-0.07398796 0.014572202 0.009030775 0.034770757 0.008245891 -0.0063934824 0.034319077 0.03066862
0.022972308 0.06222067 -0.010296102 -0.047959637 -0.039064042 -0.04457253 -0.08573184 -0.0655166
-0.032662004 -0.055825084 -0.066120304 0.043317705 0.033946637 0.014842077 0.05092124 0.038844995
0.014449368 0.02308345 0.05222903 -0.024872227 -0.0043630437 -0.006785644 -0.016764224 0.015517358
0.007866615 -0.07295199 -0.020793859 -0.03655101 -0.06667759 0.016834486 0.03719211 0.058803566
-0.021274367 0.017118994 0.04450591 -0.020823613 -0.002425604 0.06511982 -0.090813406 -0.08473574
-0.027904779 -0.076705 -0.0901734 -0.09480588 -0.05037805 -0.053476956 -0.01564074 0.021128599
0.025585499 0.019091692 -0.002880118 -0.048245467 0.0037046669 0.07164779 -0.008374577 0.008403731
0.008583362 -0.012202183 0.013092953 -0.048808865 -0.073662594 -0.04050962 -0.07376227 -0.04742383
-0.06304737 0.0028234127 -0.013078776 0.004022318 0.026308246 -0.047524244 -0.017809095 0.026768086
0.018994704 -0.012132609 -0.039269634 -0.043133553 -0.017308759 -0.08043464 -0.072280616 -0.075534195
-0.04556714 -0.09898408 -0.054778792 0.06547959 0.0044249175 -0.0727614 0.03981114 0.020005153
0.0069236024 0.054484762 -0.049680263 -0.06831724 -0.01908299 -0.035956457 -0.022161273 -0.014270131

stage4.1.weight f4 [64]
00000000: d843 c53f f573 523f 000d b03f e97f 9a3f
00000010: 6513 873f c1aa 883f e638 833f 79e4 b53f
00000020: 345a bd3f 38e9 d03f c447 9d3f 942d 9e3f
00000030: f42f b23f 2499 733f 07d8 b93f 7e5d 623f
00000040: 682f 5b3f 2d50 7c3f af7b 923f a05e 6e3f
00000050: d95b d03f ab5c 633f f04e 6c3f 9640 c23f
00000060: 4b3a ee3f 6dd3 a33f 09e4 8d3f f867 ec3f
00000070: e64d 8b3f d015 ab3f 94bc 743f 45c9 bc3f
00000080: 622f 6b3f a308 9e3f 6c30 a33f cb2c 623f
00000090: 080c 923f 584d 723f 7f6b a03f a5ff 8d3f
000000a0: 53cc d43f bdd8 683f 2f17 933f 275d 6e3f
000000b0: 9a10 863f 7aa2 953f d351 923f db3b cd3f
000000c0: 2a18 903f ef97 ab3f 1a46 be3f 6a39 543f
000000d0: d3bd cb3f a946 873f 55d3 4b3f c913 7b3f
000000e0: a508 5e3f d9b5 9a3f 1aff 993f 115a b03f
000000f0: 190f 693f 2727 b33f b156 aa3f da30 8c3f
1.5411329 0.82208186 1.3753967 1.2070285 1.0552794 1.067711 1.0251739 1.4210349
1.4793153 1.6321173 1.2287526 1.2357659 1.3920884 0.9515555 1.4519051 0.8842391
0.8561921 0.9855984 1.1443995 0.93113136 1.627803 0.88813275 0.9230795 1.517596
1.861154 1.2798897 1.1085216 1.8469229 1.0883148 1.3366032 0.9560025 1.4748923
0.91869175 1.2346386 1.2749152 0.883496 1.1409922 0.9464927 1.2532805 1.1093642
1.6624855 0.90955716 1.149145 0.9311089 1.0473816 1.1690209 1.1431221 1.6033891
1.1257374 1.3405741 1.4865143 0.82900107 1.5917305 1.0568439 0.7961934 0.98077065
0.8673194 1.2086746 1.2030976 1.3777486 0.9103866 1.3996323 1.3307706 1.0952408

stage4.1.bias f4 [64]
00000000: 18eb 213f 8023 00be 8709 e23e 89d3 a63e
00000010: 0302 c93e aff7 2b3e 7fcc fb3e 975d 2e3f
00000020: fe14 023f 38a8 2f3f 1a33 d93e db7f 893e
00000030: 56a3 013f 99c9 c43d 4932 e23e b2a2 1c3d
00000040: e3ab 2ebd 6dfc 803c 9e66 923e c220 a63a
00000050: 756d 2d3f a29a d83d e3ff fc3d 7468 243f
00000060: 7f34 793f 7e1c f63e fe91 853e 3fd1 463f
00000070: 8c72 d73e bc56 f33e 0550 3d3e c8f2 093f
00000080: 55dc 2a3e 1eee e83e e71b 2a3f 0aa4 6e3e
00000090: 6970 9c3e 7f1e 203c 851b 193f b623 493e
000000a0: 4436 443f c5e7 053e 1ccb 803e faa3 a83d
000000b0: 5cac e63d 906b 623e 694b 863e 8a97 233f
000000c0: 79a1 c43e 3252 023f 44cc 1d3f 5d77 bfbc
000000d0: 72e5 3a3f 0082 443e 4c2d 12bc efd1 2e3e
000000e0: 4b7b b63c cb6a c13e f736 9b3e 1482 ea3e
000000f0: 465c 473c 6613 053f 725f 193f 78ab 573e
0.6324935 -0.12513542 0.44147894 0.32583264 0.39259347 0.16793703 0.49179456 0.68111557
0.5081328 0.68616056 0.424218 0.26855358 0.50639856 0.09608764 0.4417899 0.038241096
-0.042644393 0.015745366 0.28593916 0.0012674558 0.67745143 0.10576369 0.12353494 0.6422188
0.9734573 0.48068613 0.26087946 0.77663034 0.4207958 0.4752711 0.18487556 0.5388608
0.16685612 0.4549417 0.66448826 0.23304763 0.30554512 0.009772896 0.59807616 0.19642529
0.766453 0.13076694 0.2515496 0.08234401 0.11263344 0.22111344 0.26229408 0.63903105
0.38404444 0.5090667 0.6163981 -0.023372347 0.73006356 0.19190216 -0.008921932 0.17072271
0.022275588 0.3777679 0.30315372 0.45802367 0.012167996 0.51982725 0.59911263 0.21061504

stage4.1.running_mean f4 [64]
00000000: 2fbd c6bc 6cdc 4bbf 9727 fabf db82 46c0
00000010: 06af 2fbf c251 99be de59 35c0 5d75 b2bf
00000020: 3e43 9abe f14e 373e 636c 11c0 1a70 0ebe
00000030: 5c59 99bf b151 893f c0e6 14c0 17cc 5d3e
00000040: fa13 fdbe adea 0dc0 2ec2 05c0 f394 b93e
00000050: dc23 4bbf da84 b2be d52b b43e b1e1 fbbe
00000060: 2de4 52c0 9fe3 64bf 0dc2 8abf 1051 583f
00000070: 1ca9 333f 7b64 72c0 eb8b 33bf 0d06 4ac0
00000080: 9446 3dbf e0b6 7abf 5617 30c0 6154 1bc0
00000090: 01cd 86bf fcf7 17bf 5352 c3be 3a46 a2bf
000000a0: 7406 67bf 19f4 693f f0f5 86bf 2ca8 903e
000000b0: 42b9 643f 8125 d0bf f9b6 b5bf a050 bbbe
000000c0: 4d42 fcbf 1ffb 4abf 4770 8fc0 ef29 51bf
000000d0: ecd3 35bc f416 d8bf 3e6c c3bf 9b14 803e
000000e0: 779c 07c0 0b01 10c0 473e a0bf 937d 5dc0
000000f0: 464e c63f 735c 8bbe bc86 04bf db48 1ac0
-0.024260132 -0.7963321 -1.9543332 -3.1017368 -0.6862644 -0.2994519 -2.83361 -1.3942066
-0.30129427 0.17901208 -2.2722404 -0.13909951 -1.1980395 1.0728055 -2.3265839 0.21659885
-0.49429303 -2.2174485 -2.0899768 0.36246452 -0.7935159 -0.34866983 0.3518969 -0.49195626
-3.2951767 -0.8940982 -1.084047 0.8449869 0.70179915 -3.7873828 -0.7013537 -3.1566193
-0.7393582 -0.97935295 -2.7514243 -2.427025 -1.0531312 -0.5936277 -0.38148746 -1.2677681
-0.9024422 0.9138809 -1.0543804 0.28253305 0.8934518 -1.6261445 -1.4196464 -0.3658495
-1.9707733 -0.7928943 -4.4824557 -0.8170461 -0.011097889 -1.6882005 -1.5267408 0.2501572
-2.1189249 -2.2500637 -1.2519006 -3.4607894 1.5492637 -0.2721897 -0.5176809 -2.4106967

stage4.1.running_var f4 [64]
00000000: e0d8 c141 2201 d240 59c6 4f41 748d 0c41
00000010: 26ab 3542 a5e7 7241 1aaa f241 969e b941
00000020: 5bfe cd41 ee42 e341 f9fb b541 2252 8f41
00000030: ab73 aa41 6552 9141 cf5a a941 2f3e 3341
00000040: 53b4 9341 3b86 5e40 f1f9 1441 4930 1741
00000050: a722 0042 b1d6 4c41 34f2 5741 5f67 0142
00000060: 1e38 fd41 b781 8241 9b80 6b41 f671 fd41
00000070: 0594 df41 4bf8 8b41 18a7 3041 f860 f441
00000080: 6118 e040 91b4 6a41 34a1 8841 73cb bd40
00000090: 1ec3 0742 4595 d540 a103 8a41 586e 3541
000000a0: c4a7 0842 555d 5d41 e676 2341 3148 3141
000000b0: 14fb 9541 375a 3541 5776 3441 4c07 0d42
000000c0: 84c5 b041 1fb4 a641 2221 9741 5631 6441
000000d0: fe18 2b42 b22f 9e41 66c0 9a40 234b 6441
000000e0: e48d 1a41 caf8 5741 de44 3941 3b26 d841
000000f0: cb6c 9041 5270 cb41 1fb5 8841 0fac 8941
24.230896 6.5626383 12.985925 8.784534 45.417137 15.181554 30.333057 23.202435
25.749197 28.40768 22.748034 17.915104 21.306479 18.165232 21.16934 11.202682
18.463049 3.4769428 9.311021 9.449288 32.03384 12.802415 13.496632 32.35095
31.652401 16.313337 14.718898 31.680645 27.947275 17.496237 11.040794 30.547348
7.002976 14.669084 17.078712 5.931085 33.940544 6.6744714 17.251772 11.339439
34.163834 13.835286 10.216528 11.080125 18.747597 11.334525 11.278892 35.257126
22.096443 20.83795 18.891178 14.262045 42.774406 19.773289 4.835986 14.268344
9.659641 13.4982395 11.579313 27.018667 18.053122 25.429844 17.088438 17.209013

sa_module4.conv.weight f4 [1, 2, 9, 9]
00000000: 65c8 bbbd e0cb b23d 6262 a3bd ffb9 4abd
00000010: 045c 403d a489 90bd 75f5 a2bd d800 fb3d
00000020: 5d01 763d 7f68 db3d b720 f5bd ba5b ca3d
00000030: a730 9dbd 2e46 153e 088b a83d b3b1 273e
00000040: f2e7 e53c 6d99 1e3d 6e65 c63c 326b 283e
00000050: afa1 d73d e177 763d 73d4 96bc 48cc 53bd
00000060: cdd2 f6bd 36c3 023d 1922 8abc 6c7c c8bd
00000070: 7bff ad3d df3c 833d 145f d93d a423 01be
00000080: caa7 0d3b 4454 a83d 9e9d 02bd d7c8 9b3b
00000090: dee9 83bd 67d6 f13c 2921 453d 77c9 59be
000000a0: 1c60 50be 6a9c 243d f6eb b3bd 8a84 2f3d
000000b0: c63b 9c3d cecc eb3c c782 33bd d3e1 473e
000000c0: b794 f3bb 8530 b6bd 1459 b53d aed1 45bb
000000d0: 1280 cabc 92ff 203d ad74 8b3d 2060 debc
000000e0: 5154 8d3d 615e 773d 08a5 e9bb ed5f 213e
000000f0: a7d8 9ebb 8ca3 8cbd 7693 8bbd 4126 2dbe
00000100: 16bd 183e 6d5c a2bd 0bce 4c3d 20d8 cc3d
00000110: 4a31 e4bc 2c87 503e 4b71 78bd cda8 f63d
00000120: 1ca7 883d cc78 89bd c976 273d 8b05 683d
00000130: bcb7 463c 540e b0bd d9c2 b73d 7ab6 89bd
00000140: 3759 ca3d 5018 8e3d 93bc 09bb 8014 3f3e
00000150: b761 f23d b1ba 7b3d 0a4e 023d 444a 01bd
00000160: 02ea 4abd ef91 55be 924e cabd 2176 a5bc
00000170: b5a7 ae3c a225 00be 4f66 95bd 6277 a2bd
00000180: 38b0 e3bd c359 54bc 3a82 8dbe d463 58bd
00000190: 7a47 11be 7771 98be 657a 5fbe 73e9 26be
000001a0: 67ec e9bd a314 b03d 00b6 1e3d daff c8bd
000001b0: 8383 1fbd 79a0 1e3e 5630 84be 92d9 c4be
000001c0: 2366 7fbe 21b0 93be e82b 12be bb09 8f3c
000001d0: 2d6c 4f3d 3609 1e3e 4b89 a43d 95a4 1fbe
000001e0: c953 90be fe09 f0be caeb f0be b750 24be
000001f0: e026 0c3e 9c45 babd 3029 3cbd fe19 47bd
00000200: a57b 2dbe 1470 94be 8d89 d9be d8f6 a2be
00000210: 092c 8dbc 0f41 99bd bac3 633e 20cd ac3d
00000220: 4544 15bd 8d41 173e da39 c0bd 5d9e cdbc
00000230: 2320 45be e0d1 15be c438 493b c59a a5bd
00000240: 25ab 81bd d802 113d 2ab9 97be 8712 b0bd
00000250: 0ba2 bfbd 0722 0bbe b332 cd3c 4f5b cfbd
00000260: 43ab e6bc 3729 2bbd 6369 0a3e 271c 93bd
00000270: b877 85bd 0b2c cb3c 205a babd 94ff 2a3e
00000280: 6481 57be 48d8 16be
-0.091690816 0.08730292 -0.079777494 -0.049493786 0.046962753 -0.07057503 -0.079569735 0.1225602
0.060059894 0.107132904 -0.119691305 0.09880777 -0.07675295 0.14577553 0.08229643 0.1637638
0.028064702 0.038720537 0.024218287 0.16447142 0.105288856 0.06017292 -0.01841185 -0.05170849
-0.12051926 0.03192445 -0.016861962 -0.097893566 0.08495995 0.064080946 0.10613838 -0.12611252
0.0021614903 0.082191974 -0.031888597 0.0047541666 -0.06441091 0.02952118 0.048127327 -0.21268259
-0.20349163 0.04018823 -0.0878524 0.04285101 0.076285884 0.028784182 -0.04382589 0.19519739
-0.0074334997 -0.08895973 0.08854881 -0.0030184793 -0.024719272 0.03930623 0.068093635 -0.027145445
0.06900848 0.06039274 -0.007130269 0.15759249 -0.0048476043 -0.068671316 -0.06815235 -0.16909124
0.1491588 -0.07927785 0.050001185 0.1000216 -0.027855534 0.20364064 -0.06065492 0.12043915
0.066724986 -0.06712493 0.040884767 0.05664591 0.012128767 -0.08596483 0.08972711 -0.06724258
0.09880298 0.06938231 -0.002101694 0.18660164 0.11835044 0.06145734 0.031812705 -0.031564966
-0.049539573 -0.2085645 -0.09878267 -0.02019793 0.021320203 -0.12514356 -0.072949044 -0.07932927
-0.111175954 -0.012960854 -0.27638417 -0.05282958 -0.14187422 -0.29774067 -0.21824034 -0.16299991
-0.11422043 0.08597686 0.038747787 -0.09814425 -0.03894378 0.15490903 -0.25818127 -0.38447243
-0.24941306 -0.28845313 -0.14274561 0.017460695 0.050640274 0.15433201 0.08033999 -0.15590127
-0.28188923 -0.46882623 -0.47054893 -0.16046415 0.13686705 -0.09095308 -0.045937717 -0.048608772
-0.16941698 -0.2899176 -0.42487755 -0.31828952 -0.017232912 -0.07483112 0.22242633 0.08437562
-0.03644206 0.147711 -0.09386034 -0.025099928 -0.1925054 -0.14630842 0.0030704 -0.080861606
-0.06331471 0.035403103 -0.29633456 -0.08597284 -0.09357079 -0.13587199 0.02504859 -0.101248376
-0.028157836 -0.041787352 0.13516764 -0.07183104 -0.06516975 0.024801275 -0.09099221 0.16699058
-0.21045452 -0.14730942

final.weight f4 [3, 64, 1, 1]
00000000: 1a31 923f 3215 8bbe a2c3 733f 8eb1 9f3e
00000010: f159 183f f243 46bf f160 b03e f1ae 273f
00000020: ba77 9a3f a91c 8a3f 299c ee3e 2ce8 0e3f
00000030: f8f7 3d3f 95d0 9fbc a276 853f e989 1abf
00000040: 0da2 7ebe 200c 64bf ddd1 723e ea26 eabe
00000050: a0c9 883f 93f8 91be c2ec 30be 51f0 7e3f
00000060: cce3 823f 574d 293f ffc9 573e f589 ad3f
00000070: 4d3b c83e 2875 2e3f 737a ccbd a214 2f3f
00000080: 33ac 6bbe 94ee 2a3f 6305 0c3f 7565 08be
00000090: bb09 ad3e d9d4 c0be 329b 553f f24e 293e
000000a0: 7c48 973f b205 473d f0f2 7e3d 6ca0 d2be
000000b0: 834d 143e d87e 393e 7be0 a3bc 8745 a23f
000000c0: 6c58 4a3e 8046 0e3f a81b 3a3f d499 19be
000000d0: 4b4f 833f d7c8 0bbf 2553 d9be f1ac 66be
000000e0: 0052 33bf 134f e83e 1113 553e 6566 803f
000000f0: 3a9f 0dbf 4335 773f 0dd4 493f 69db 483f
00000100: dee0 5bbf 9bb0 ed3e 56c6 eebe 7642 41be
00000110: c852 19bf 205f f13e 881b 04bf 3ec0 5bbf
00000120: 6e5d b1be ac33 04bf 29dc 84bf f091 aabe
00000130: 24d8 03bf 3239 223f c922 23bf 5159 2c3f
00000140: ad76 1abd 2c81 633e 5891 49bf 1844 683f
00000150: 9450 68bf 6c3b 92be 056b 0abf 525e 95bf
00000160: e5eb 7bbf 767b 52be e2af 0fbf 3e98 75bf
00000170: cbd1 c8be 91ad 4cbf b095 4fbf 0a67 89bf
00000180: 2695 b5be 75b3 6ebc f986 30bf dfd2 a2be
00000190: e209 41bf 8f5c ed3d 33f7 28be 230d 72be
000001a0: e3d3 50bf da71 84be ff78 24bf 1429 c3be
000001b0: 5eb9 1f3f 9159 89bf b1f0 52bf 8b31 82bf
000001c0: ae5a cfbe 7696 1fbf 9645 8cbf c6e6 6f3d
000001d0: fd24 73bf df18 513f 8ac1 d93e 65f0 cdbe
000001e0: 546f eb3e 4561 b3be 0fbe 7ebf 99a1 49bf
000001f0: fa0a 083f 5a9d cdbe 8ccd 1dbf a4ba 0f3d
00000200: e383 47bf 174f 19be 348c f3be 5c94 41be
00000210: 3036 f9be 981d d13e 87c8 103e 66b9 68bf
00000220: 9f61 cebe b63e 99bf 0f19 b03e a7fd 47bf
00000230: 89fe 4dbf 374f 8ebf bb26 23bf b9d6 77be
00000240: 3da5 d7be f27e f43d e271 ba3e 7a7c 3fbe
00000250: f268 5bbf 32d2 1b3f 8047 403f 6dd6 46bf
00000260: d5d0 22bf d06b e8be 6dbd 163f 58c2 8bbf
00000270: b324 7ebf 19db e7bd f2d4 1c3f 536f 1fbe
00000280: 1729 183f 7333 8abf b613 90be c8d6 e53e
00000290: 7181 cb3d ee76 473f fb6d 3abf 1dca d53e
000002a0: 8185 68bf 57ee 333f b7ba 0e3f ac92 3c3f
000002b0: 82db a4bf 3674 0b3f a7e5 053f fcbd 05bf
000002c0: 81e6 07bf 78f9 42bf 426d 19be 5e62 68be
000002d0: 75cd 89bf c0cf 2ebf 0d4c 71be d96d 993e
000002e0: be64 b9bc 27fc 7cbe c8f4 183f 6200 f6be
000002f0: fd5d 2ebf 5bb3 dcbe 251c 41bf 6071 98be
1.1421235 -0.27164608 0.95220387 0.3119015 0.5951224 -0.77447426 0.3444896 0.65501314
1.2067788 1.0789996 0.46603516 0.55823016 0.74206495 -0.01950864 1.0426829 -0.60366684
-0.24866505 -0.89081 0.23712869 -0.45732814 1.0686531 -0.2850996 -0.17277816 0.99585444
1.0225768 0.66133636 0.21073149 1.3557726 0.39107743 0.68147516 -0.09984293 0.6839086
-0.23014908 0.6677029 0.5469572 -0.13319953 0.33796486 -0.3766239 0.83439934 0.16534021
1.1818995 0.048589416 0.062243402 -0.41138017 0.14482693 0.18114793 -0.020004502 1.2677468
0.19760293 0.55576324 0.7269845 -0.15000087 1.0258573 -0.5460333 -0.42446247 -0.2252691
-0.70047 0.4537283 0.20808055 1.0031248 -0.55321085 0.96565646 0.7883919 0.78459793
-0.85889995 0.46423802 -0.46635693 -0.18873009 -0.5989194 0.47142887 -0.5160451 -0.85840213
-0.34641594 -0.51641345 -1.0379688 -0.33314466 -0.5150168 0.63368523 -0.6372495 0.67323786
-0.037710834 0.22217244 -0.787374 0.907289 -0.9074795 -0.2856096 -0.5406955 -1.1669409
-0.9840682 -0.20554909 -0.5612775 -0.9593543 -0.3922256 -0.7995234 -0.8108778 -1.073457
-0.35465354 -0.014569153 -0.6895595 -0.31801507 -0.75405705 0.1158992 -0.16500549 -0.23637824
-0.81573313 -0.25868112 -0.64247125 -0.38117278 0.6239222 -1.0730458 -0.82398516 -1.0171369
-0.4049887 -0.6233896 -1.0958736 0.058569692 -0.94978315 0.81678575 0.4253047 -0.4022247
0.45983374 -0.35035148 -0.99508756 -0.78762203 0.5314175 -0.40159112 -0.61641765 0.035090104
-0.7793562 -0.14971577 -0.47567904 -0.18904251 -0.48674154 0.4084289 0.14138995 -0.90907896
-0.40308854 -1.1972263 0.34394118 -0.7812142 -0.80466515 -1.1117924 -0.63730973 -0.24203004
-0.42118254 0.119382754 0.3641501 -0.18699828 -0.8570701 0.6086761 0.751091 -0.7767094
-0.635999 -0.45394754 0.5888279 -1.0918684 -0.9927475 -0.113210864 0.6126243 -0.1556981
0.594377 -1.0796951 -0.28140038 0.44890428 0.09936798 0.7791585 -0.72824067 0.41755763
-0.9082871 0.7028555 0.55753654 0.73661304 -1.2879488 0.544742 0.52303547 -0.5224302
-0.53086096 -0.7616191 -0.14983085 -0.22693774 -1.0765826 -0.6828575 -0.23564167 0.2996662
-0.022631045 -0.24705563 0.59748507 -0.48047167 -0.68112165 -0.43105587 -0.7543357 -0.29773998

final.bias f4 [3]
00000000: 819f 4c3f 7003 34bf 3139 9dbe
0.79930884 -0.70317745 -0.30707696
